runs/exp3/best.pt (torch, 853347 bytes, 10 tensors)

lstm.weight_ih_l0 f4 [512, 26]
0	0xbd5716af	-0.052511867
1	0xbd9c2d3e	-0.07625817
2	0x3ceb2e0c	0.02870848
3	0xbd8d4454	-0.06897798
4	0xbc9b83bf	-0.01898372
5	0xbd4b43f1	-0.04962534
6	0x3d54c62f	0.051946815
7	0xbc4d0b5f	-0.012514918
8	0xbd632270	-0.055452764
9	0xbc42ba1d	-0.011885193
10	0x3d291437	0.041279044
11	0xbab95094	-0.0014138394
12	0xbdb8e17c	-0.09027383
13	0xbabcfc89	-0.0014418523
14	0x3d2859ad	0.041101146
15	0xbc2f18b0	-0.010687038
16	0x3c85137c	0.016244642
17	0xbbe4e152	-0.006984868
18	0x3d36726c	0.044542715
19	0x3d21ac80	0.03947115
20	0x3cae9cad	0.021314943
21	0x3d259aee	0.040430956
22	0x3d35c193	0.04437406
23	0x3dabd54e	0.08390294
24	0x3c5f74e3	0.013638708
25	0x3db72781	0.08943082
26	0xbcc10899	-0.02356367
27	0xbd72bc07	-0.059261348
28	0xbbb790bc	-0.0056019705
29	0xbd90e7c6	-0.07075457
30	0xbca12207	-0.019669546
31	0xbd802148	-0.06256348
32	0xbae71d95	-0.0017632717
33	0xbd1c7882	-0.038200863
34	0xbc6e2561	-0.014535279
35	0xbd310206	-0.04321482
36	0x3cf8d5ac	0.030375324
37	0xbcb517ea	-0.02210613
38	0x3d167caa	0.036739983
39	0xbc962fbc	-0.018333308
40	0xbb5c0028	-0.003356943
41	0xbc5618da	-0.0130674485
42	0xbc9ea859	-0.019367384
43	0xbc6c3fe4	-0.01441953
44	0x3cc302e1	0.023805084
45	0x3d4de822	0.050270207
46	0xbc5a7f45	-0.0133360075
47	0x3d415051	0.047195736
48	0x3c780e8e	0.015140189
49	0x3da47615	0.08030335
50	0xbc4982cd	-0.012299252
51	0x3d97c05d	0.07409737
52	0x3c7e2a85	0.015513067
53	0xbd850a75	-0.06496135
54	0x3da67b44	0.0812898
55	0xbd71199f	-0.058862325
56	0xbcae81b7	-0.021302087
57	0xbd80f37d	-0.06296442
58	0x3defdd86	0.11712174
59	0x3c92e135	0.017929653
60	0xbb3aad52	-0.0028484655
61	0x3cc81aea	0.024426896
62	0x3dc0b250	0.094090104
63	0x3cc8c39b	0.024507334
64	0x3cbcafaf	0.023032991
65	0x3cb2d155	0.021828333
66	0x3cc0e675	0.02354739
67	0x3c482dee	0.012217982
68	0xbd600988	-0.05469659
69	0x3a848f58	0.001011352
70	0xbcbbadb8	-0.022909984
71	0x3cc59619	0.024119424
72	0xbd893f7b	-0.06701561
73	0x3c0f1c15	0.008734723
74	0xbdb3cf79	-0.08779807
75	0x3a771760	0.00094257854
76	0xbd6d8d6d	-0.057996202
77	0xbc3bc7b5	-0.011461188
78	0xbd197f6e	-0.037475042
79	0xbd689ebf	-0.056792017
80	0xbcd306bc	-0.025760047
81	0xbd2b4ae4	-0.04181947
82	0xbd201bf4	-0.03908916
83	0xbd42ad49	-0.04752854
84	0x3b737bff	0.0037152765
85	0xbbb65765	-0.0055646175
86	0xbc144f54	-0.009052116
87	0xbcd8b701	-0.02645445
88	0xbc5dcb76	-0.013537278
89	0x3c01ff85	0.007934456
90	0xbb63509a	-0.0034685493
91	0xbceaa394	-0.028642453
92	0x3c2ffbd2	0.010741191
93	0x3c220356	0.009888491
94	0xbbd6f4d8	-0.0065599494
95	0x3c4396e5	0.0119378315
96	0xb982c6b4	-0.00024943578
97	0x3d279a5c	0.040918693
98	0xbd1f402a	-0.03887955
99	0x3d0a95ff	0.033834454
100	0x3c10e610	0.008843914
101	0x3dca53db	0.098792754
102	0xbc6bb81c	-0.014387157
103	0x3dad6e19	0.08468265
104	0x3d905645	0.070477046
105	0xbd7df1fe	-0.06199836
106	0x3d076151	0.033051793
107	0xbd053b08	-0.032527
108	0xbbd20271	-0.0064089824
109	0xbd1e9117	-0.038712587
110	0xbc1d6bdd	-0.009608236
111	0x3c006f23	0.007838997
112	0xbd535dc1	-0.051603083
113	0x3c8b00c1	0.016968133
114	0x3c2947a9	0.0103320265
115	0x3d2be9b4	0.041970924
116	0xbc77ae04	-0.015117172
117	0xbd093908	-0.033501655
118	0x3c4aa82a	0.012369195
119	0x3c79e63c	0.015252646
120	0xbc9e8408	-0.019350067
121	0x3ca2a244	0.019852765
122	0xbd40dff7	-0.04708859
123	0x3cd93222	0.026513163
124	0xbd243bb4	-0.040096
125	0x3d2d1fcc	0.042266652
126	0xbdab03e5	-0.08350352
127	0x3cc033ab	0.023462137
128	0xbd81fe6b	-0.063473545
129	0x3d127237	0.035753455
130	0xbc87a114	-0.0165563
131	0xbd15ed58	-0.0366033
132	0x3bd9087f	0.0066233273
133	0xbd001b05	-0.031275768
134	0xbc2a279a	-0.010385418
135	0xbd1a406b	-0.03765909
136	0x3b59da2e	0.0033241617
137	0xbcf37d16	-0.029722732
138	0xbcd0bfa0	-0.025481999
139	0xb7d1b33a	-2.49982e-05
140	0xbba1e4a4	-0.004940586
141	0x3c3d63cd	0.011559439
142	0xbc04e2da	-0.008110726
143	0x3c24dad5	0.010061939
144	0xbc0b6751	-0.008508519
145	0x3bedc672	0.0072563225
146	0xbccdda5b	-0.025128534
147	0x3c9047f6	0.017612439
148	0xbad7167c	-0.0016409899
149	0x3c826869	0.015918927
150	0xbc43059e	-0.011903195
151	0x3d064e49	0.032789502
152	0x3c7eaa36	0.015543511
153	0x3d58d25c	0.05293499
154	0x3caf0a67	0.021367265
155	0x3d3f702c	0.046737835
156	0xbd6393d2	-0.055560894
157	0xbd35c12d	-0.04437368
158	0xbd272694	-0.040808275
159	0xbce38a2d	-0.027775848
160	0x3d40a586	0.047032855
161	0xbcf44dff	-0.029822348
162	0xbd8384b8	-0.064217985
163	0xbbb15fd3	-0.0054130345
164	0x3d927621	0.071514376
165	0xbba598a8	-0.0050535984
166	0xbde5c773	-0.112196825
167	0x3c0a12f6	0.008427372
168	0xbcc2286d	-0.023700917
169	0x3bc1f276	0.005918796
170	0xbc01db82	-0.00792587
171	0x3cfb38d8	0.030666754
172	0x3d55ade3	0.052167784
173	0x3d0be72d	0.034156013
174	0xbd06a6c5	-0.032873888
175	0x3d152673	0.03641362
176	0x3da15606	0.07877736
177	0x3d0816e0	0.03322494
178	0xbca46f17	-0.020072503
179	0x3d3cdbdb	0.046108108
180	0x3dc12377	0.094305925
181	0x3d569335	0.05238648
182	0xbd35e6a9	-0.044409428
183	0xbddb9e59	-0.10723562
184	0x3d69a782	0.057044514
185	0xbdb3b519	-0.08774776
186	0x3d4fe67c	0.050756916
187	0xbdcb174f	-0.09916555
188	0x3cfe35c5	0.031031499
189	0xbd867fd4	-0.0656735
190	0x3d608d55	0.054822285
191	0xbd8bf872	-0.068344966
192	0x3ce751c5	0.028237233
193	0xbd0bf8fe	-0.034173004
194	0x3bdeeaaa	0.0068028765
195	0xbd6e442d	-0.058170486
196	0x3ba9f229	0.0051863384
197	0xbc8eaa66	-0.017415237
198	0x3c4c0428	0.012452163
199	0xbc7fa955	-0.015604337
200	0xbd464091	-0.04840142
201	0x3ced4c8a	0.02896716
202	0xbd14734c	-0.03624277
203	0x3d2ce7e0	0.04221332
204	0x39ff7f93	0.0004873244
205	0x3dd7675f	0.10517763
206	0xbc9977c0	-0.018733859
207	0x3de0a3ef	0.10968768
208	0x3b9f7721	0.004866496
209	0x3b85d2ff	0.0040839906
210	0xbd30c8aa	-0.04316012
211	0xbbcf66f5	-0.006329412
212	0xbd839c86	-0.06426339
213	0xbc7925f1	-0.0152068
214	0xbd388110	-0.04504496
215	0x3d627bbd	0.055293787
216	0x3c00889c	0.00784507
217	0x3be562d3	0.007000306
218	0x3911d52b	0.00013907689
219	0x3c94d22e	0.018166628
220	0x3cd09e92	0.025466237
221	0x3c685c8f	0.014182224
222	0x3cbe8cc3	0.02326048
223	0x3cf91ebe	0.030410167
224	0x3c6f8c20	0.014620811
225	0x3ca824a4	0.020525284
226	0xbd3a97b3	-0.045554828
227	0x3d150127	0.036378052
228	0x3d116357	0.03549513
229	0x3c9f974d	0.019481326
230	0xbc8621c8	-0.01637353
231	0x3c9ad3c6	0.01889981
232	0x3ce343c3	0.027742272
233	0x3cf3f824	0.029781409
234	0xbcf00884	-0.029300936
235	0xbd8f3776	-0.06993
236	0x3d2545a5	0.04034962
237	0xbd885d84	-0.06658462
238	0x3d074427	0.03302398
239	0xbd74b926	-0.059746884
240	0x3c64bc8c	0.013960969
241	0xbbab7357	-0.0052322554
242	0x3d3a79c5	0.045526285
243	0xbb928b48	-0.00447217
244	0xbbda4cd0	-0.006661989
245	0x3c69d048	0.0142708495
246	0xbcab3da7	-0.020903422
247	0xba0e39a9	-0.0005425462
248	0x3d31edb9	0.0434396
249	0x3b56c62a	0.0032771924
250	0x3d1ebea5	0.03875603
251	0xb9b0740a	-0.00033655792
252	0xbc8df9ae	-0.01733097
253	0x3ce605d9	0.02807896
254	0xbc8d0c19	-0.017217683
255	0x3c7034d8	0.014661036

lstm.weight_hh_l0 f4 [512, 128]
0	0x3aab144e	0.0013052316
1	0xbccb4682	-0.024813894
2	0xbcbba4e5	-0.022905776
3	0xbd229161	-0.039689425
4	0xba04432c	-0.000504541
5	0x3d0820a9	0.033234272
6	0xb9cb1fd3	-0.00038742888
7	0x3c9fbd28	0.019499376
8	0xbc01c0ae	-0.007919474
9	0xbc5437a4	-0.012952719
10	0xbc46c450	-0.0121317655
11	0xbcc126c0	-0.023578048
12	0x3c4df2d6	0.012570104
13	0x3bae19ed	0.005313149
14	0x3c144ffe	0.009052275
15	0xbcb9f39d	-0.022699172
16	0x3c0dcd71	0.008654938
17	0xbc06122c	-0.008183043
18	0x3b88fda1	0.0041806255
19	0xbb79b4b9	-0.0038102104
20	0x3c853b47	0.016263617
21	0xbc1e40e0	-0.009659022
22	0xbb861414	-0.004091749
23	0x3c144061	0.009048552
24	0x3c9061b4	0.017624713
25	0xbb0ad392	-0.0021183235
26	0x3c02851c	0.007966306
27	0x3bda509c	0.0066624414
28	0x3c9b9f2d	0.0189968
29	0x3cd64918	0.0261579
30	0xbc8241f5	-0.015900591
31	0xbcd62db8	-0.026144847
32	0xbcdd598a	-0.027020235
33	0xbd017ed0	-0.03161508
34	0x3cedd1af	0.029030649
35	0xbd3b708c	-0.04576163
36	0x3bb64ed7	0.0055635977
37	0x3cc34972	0.023838732
38	0x3cc9c26c	0.02462884
39	0xbc7f3d67	-0.015578604
40	0xbb6d55eb	-0.0036214541
41	0xbc9f18a6	-0.019420933
42	0xba413cbb	-0.0007371415
43	0x3c7ba417	0.015358946
44	0xbb25d0ac	-0.002530138
45	0xbd00bc85	-0.031429786
46	0xbd2886a7	-0.04114404
47	0x3b80c937	0.0039302367
48	0xbcaaeef2	-0.020865891
49	0x3c9c9518	0.019114062
50	0x3d205e56	0.039152466
51	0xbbac0c10	-0.0052504614
52	0x3b0df3b9	0.0021660163
53	0xbcc64db6	-0.024206977
54	0xbc258fca	-0.010105083
55	0xbc524aab	-0.012835185
56	0x3ca1d0f1	0.019752951
57	0xbba6b9a9	-0.0050880504
58	0x3c518857	0.012788854
59	0x3ce4a312	0.02790979
60	0x3d1afd22	0.037839063
61	0x3cf4d9e7	0.02988906
62	0xbae1bb69	-0.001722199
63	0x3c8a8734	0.016910173
64	0xbb6dd076	-0.0036287582
65	0xbb8afdd5	-0.004241685
66	0xbc889f0b	-0.0166774
67	0xbc4f9076	-0.0126687195
68	0x3b47bd8e	0.0030477974
69	0x3c730683	0.0148330955
70	0x3cab1b64	0.020887084
71	0x3d084d1e	0.03327667
72	0x3d1e8ed2	0.038710423
73	0xbcaf9d8c	-0.021437429
74	0x3b328cec	0.002724464
75	0xbbc8e3d4	-0.006130675
76	0xbb09973e	-0.0020994688
77	0xbd0d37f9	-0.034477208
78	0xbc0dac29	-0.008647003
79	0xba1031b4	-0.00055005704
80	0xb9ec6d45	-0.0004509484
81	0xbcc74db2	-0.02432904
82	0x3d140f61	0.03614748
83	0x3d0d578e	0.034507327
84	0xbc8c43b2	-0.017122123
85	0xbc9cbdc9	-0.019133465
86	0xbcf72e1a	-0.03017335
87	0xbc8f7da9	-0.017515974
88	0x3c857d7f	0.016295193
89	0xbcf51204	-0.029915817
90	0x3c04837a	0.008087987
91	0xbc146b49	-0.009058782
92	0xbcf92c29	-0.030416565
93	0xbb637a32	-0.0034710285
94	0x3b4c0d6d	0.0031135932
95	0x3c67c2cc	0.014145564
96	0x3c5b5467	0.013386822
97	0xb9180d24	-0.00014500745
98	0x3c057a9b	0.008146907
99	0x3bb379d0	0.0054771677
100	0x3c733ef6	0.014846554
101	0xbd2651c9	-0.04060534
102	0x38d9b9fd	0.00010382009
103	0x3bdd65fc	0.0067565423
104	0x3ca98383	0.020692592
105	0x3cf8d9a4	0.030377217
106	0x3cbc5136	0.022987943
107	0xbbf1d8ec	-0.0073805954
108	0xbb955739	-0.004557517
109	0x3c1c5f70	0.009544238
110	0xbc2ddabc	-0.010611232
111	0x3caa8a68	0.02081795
112	0xbce10c65	-0.02747173
113	0x3c4286f2	0.011872994
114	0x3c3ab582	0.011395814
115	0xbce229f4	-0.027607895
116	0xbca232bf	-0.019799588
117	0xbc805ff1	-0.015670748
118	0x3b8c1388	0.0042747892
119	0xbc0ed692	-0.00871815
120	0xbca6e399	-0.020372199
121	0xbc7f72a4	-0.015591297
122	0xbbde165d	-0.0067775683
123	0x3d1a86f5	0.03772636
124	0x3c1b31fb	0.0094723655
125	0x3c996634	0.018725492
126	0xbbb2b468	-0.005453635
127	0x3cc7abdd	0.024373943
128	0xbbdf40ca	-0.0068131434
129	0xbc7aeaca	-0.015314767
130	0xbc16d2b2	-0.009205507
131	0xbd31ac05	-0.04337694
132	0xbc2d8c61	-0.010592551
133	0x3cf5fb0d	0.030026937
134	0xbc41efb2	-0.011836933
135	0xbbd565b9	-0.0065123704
136	0x3bb6c8eb	0.0055781505
137	0xbc9bf4bf	-0.019037602
138	0xbc224e14	-0.009906311
139	0xbc972711	-0.018451246
140	0x3c66068e	0.014039649
141	0xbb9c8d3f	-0.00477758
142	0x3c5c1bf3	0.013434398
143	0x3c0a9bee	0.008460028
144	0x3bb90b29	0.0056470823
145	0xbc20d042	-0.0098152775
146	0x3c316ef5	0.010829677
147	0xbd0a6e68	-0.033796698
148	0x3af14ecc	0.0018410324
149	0x3aca872d	0.0015451662
150	0xbbe40cdd	-0.0069595412
151	0x3c60db94	0.0137242265
152	0x3bc2b904	0.0059424657
153	0xbbaf068e	-0.0053413576
154	0x3b89d672	0.004206472
155	0x3c6cafc5	0.014446204
156	0x3cab97e1	0.020946445
157	0xba83c78c	-0.0010053976
158	0xbbfc07d0	-0.007691361
159	0xbcf02a00	-0.029316902
160	0xbcd5d117	-0.026100678
161	0xbc8d3261	-0.017235937
162	0x3cd04e7e	0.025428053
163	0xbd1acd37	-0.037793364
164	0x3c3cc0b9	0.011520558
165	0x3cb6f934	0.022335626
166	0x3c7b0d4f	0.015322997
167	0xbd028450	-0.031864464
168	0xbce03b1d	-0.027371937
169	0xbb930791	-0.004486986
170	0x3c23da0a	0.010000715
171	0x3b924386	0.004463616
172	0x3aea427f	0.0017872601
173	0xbcc37477	-0.023859246
174	0xbc889c4d	-0.016676093
175	0xbc805020	-0.015663207
176	0xbc5686c6	-0.013093656
177	0x3d0359ad	0.032067943
178	0x3d187b92	0.03722722
179	0xbb9ffe6a	-0.0048826234
180	0xbcc17025	-0.023613045
181	0x3c253e59	0.010085666
182	0xbb2f5e4a	-0.0026759082
183	0xbc9198c8	-0.017773047
184	0x3c9d7362	0.019220058
185	0x3bc7d5d9	0.0060984907
186	0x3cb6abae	0.02229866
187	0x3c332045	0.010932987
188	0x3d0ed434	0.03487034
189	0x3c3119c1	0.010809363
190	0xbd122d85	-0.035687942
191	0x3b544109	0.0032387397
192	0xba4a8327	-0.00077252317
193	0xbb4b7ee5	-0.0031050977
194	0xbcbfd5c3	-0.02341736
195	0xbc211630	-0.00983195
196	0xbaf0f2de	-0.0018382927
197	0x3acd8325	0.0015679343
198	0x3cdb457a	0.026766527
199	0x3d1f97f0	0.03896326
200	0x3d12f6c2	0.035879858
201	0xbc7a46bb	-0.0152756525
202	0x3b9aff1a	0.0047301175
203	0x3beef07b	0.007291851
204	0xbbec711a	-0.007215631
205	0xbc90411c	-0.017609172
206	0x3c3decdf	0.011592119
207	0xbac85f3e	-0.0015287173
208	0x3c01a55e	0.007912962
209	0xbcd4e389	-0.025987403
210	0x3d2496c0	0.04018283
211	0x3c8718a5	0.016491244
212	0x3c512565	0.012765263
213	0xbba441bf	-0.0050127204
214	0xbc84bab3	-0.016202306
215	0xbc9174be	-0.017755862
216	0x3cdb239b	0.026750376
217	0xbcfff769	-0.031245904
218	0x3b1c2481	0.002382547
219	0x3b0c2a76	0.0021387613
220	0xbce7003d	-0.028198356
221	0x3c1081f7	0.0088200485
222	0xbc8c3c19	-0.0171185
223	0x3b74082c	0.0037236316
224	0x3cb085ac	0.021548115
225	0xbc70ae8a	-0.014690051
226	0xbb2ac680	-0.0026058257
227	0x3c63cd24	0.01390389
228	0xbc124aa1	-0.008928926
229	0xbd2f8cca	-0.042858876
230	0x3bab2a18	0.005223524
231	0x3bef8683	0.007309736
232	0x3ced8591	0.028994353
233	0x3d04cae7	0.032420065
234	0x3a8897c5	0.0010421207
235	0xba103892	-0.00055015937
236	0xbc143742	-0.009046378
237	0x3affcb19	0.0019515484
238	0x3bb9f986	0.0056754975
239	0x3c355c8a	0.011069426
240	0xbcfc0d76	-0.030768137
241	0x3c928965	0.01788778
242	0x3ca115c0	0.019663692
243	0xbd02cc9b	-0.03193341
244	0x3c874016	0.01651005
245	0x3b823fe1	0.0039749
246	0x3ca380ad	0.019958818
247	0x3b57aa22	0.0032907804
248	0xbbd0427f	-0.006355583
249	0xbcbab705	-0.022792349
250	0xbbdae449	-0.0066800457
251	0x3d16027e	0.03662347
252	0x3c004fc1	0.007831515
253	0x3c69a2c2	0.014259996
254	0x3b3b46b0	0.0028576069
255	0x3c3ad63f	0.011403619

lstm.bias_ih_l0 f4 [512]
0	0x3dc07915	0.093980946
1	0x3de9a137	0.114077024
2	0x3d6e09da	0.058114864
3	0x3dce4f2c	0.100736946
4	0x3ddab3df	0.10678839
5	0x3d9e2f92	0.07723917
6	0x3d0e99dc	0.0348147
7	0x3dc2ba95	0.09508244
8	0x3d3c3d4f	0.045956906
9	0x3d9bada2	0.07601477
10	0x3d7242a8	0.0591456
11	0x3daa10ad	0.08303962
12	0x3d9205dc	0.07130024
13	0x3de36574	0.11103335
14	0x3d0dce2c	0.03462045
15	0x3dcda5b8	0.10041374
16	0x3d4088d6	0.047005497
17	0x3d17f38f	0.03709751
18	0x3dcfccdc	0.10146496
19	0x3d66b4bb	0.0563247
20	0x3d8f5486	0.069985434
21	0x3da52f4c	0.08065662
22	0x3d766208	0.060152084
23	0x3ce0e9f7	0.027455313
24	0x3da9f607	0.08298879
25	0x3d84d87e	0.06486605
26	0x3d0e4ec0	0.03474307
27	0x3d847fea	0.0646971
28	0x3dbb220a	0.09137352
29	0x3da9ab9b	0.08284684
30	0x3d3eaff7	0.046554532
31	0x3d640b8e	0.055675082
32	0x3ddc6cb6	0.107629225
33	0x3d8bd670	0.0682801
34	0x3d36ebbb	0.044658404
35	0x3d9141a4	0.07092598
36	0x3d5ceb1a	0.053935148
37	0x3daa9b35	0.08330385
38	0x3daf909f	0.08572506
39	0x3dd2b6e7	0.10288792
40	0x3d9f5c5f	0.0778129
41	0x3da8127b	0.0820665
42	0x3d5d5726	0.05403819
43	0x3da0a971	0.078448184
44	0x3c4d76a0	0.012540489
45	0x3d2811e8	0.0410327
46	0x3d95afe4	0.07308939
47	0x3dc21186	0.094759986
48	0x3d86ddc0	0.06585264
49	0x3d22b1fd	0.039720524
50	0x3d5da3f6	0.054111443
51	0x3d61d40f	0.055133875
52	0x3db0ebcb	0.08638724
53	0x3dacb66b	0.08433231
54	0x3d7e2a7a	0.062052228
55	0x3d9c9f39	0.07647557
56	0x3d6af69a	0.057364084
57	0x3d8e59d1	0.06950725
58	0x3da9f02a	0.08297761
59	0x3d985173	0.0743741
60	0x3d8fc8ba	0.070207074
61	0x3d9e45eb	0.077281795
62	0x3e0599b8	0.1304692
63	0x3db45c89	0.08806712
64	0x3da34688	0.07972437
65	0x3cfcb0b3	0.030845976
66	0x3dcfa2ea	0.10138495
67	0x3dae9272	0.08524026
68	0x3ddbba7f	0.10728931
69	0x3d4b1bd7	0.049587097
70	0x3d12c699	0.03583393
71	0x3daed1b3	0.08536091
72	0x3d50a07c	0.0509343
73	0x3dbf4b7d	0.0934057
74	0x3d9be6f9	0.07612414
75	0x3d8dca29	0.069233246
76	0x3d572532	0.052525707
77	0x3db11682	0.08646871
78	0x3d07bcde	0.033139102
79	0x3d4c0423	0.049808633
80	0x3d710763	0.058844935
81	0x3d3308e5	0.043709654
82	0x3d14c2fc	0.036318764
83	0x3d8f92a3	0.070103906
84	0x3dad5a0b	0.0846444
85	0x3d9f425e	0.077763304
86	0x3d100392	0.035159655
87	0x3d7c0183	0.06152488
88	0x3d239e2f	0.039945778
89	0x3dd1fa8d	0.10252867
90	0x3d6c0ed0	0.057631314
91	0x3d9abfa8	0.07556087
92	0x3da88a3f	0.08229493
93	0x3da7dc6d	0.0819634
94	0x3da02bef	0.0782088
95	0x3db403f5	0.08789817
96	0x3d4caf8b	0.0499721
97	0x3d97d574	0.0741376
98	0x3d96e03e	0.073669896
99	0x3d7e0836	0.06201955
100	0x3e026e4b	0.12737386
101	0x3d796e81	0.0608964
102	0x3d7ce3dc	0.06174074
103	0x3d80db72	0.06291856
104	0x3d841051	0.064484246
105	0x3d05c4c5	0.032658357
106	0x3d83bd17	0.064325504
107	0x3d7497fe	0.059715264
108	0x3d9a206e	0.07525717
109	0x3dea64a2	0.114449754
110	0x3d910750	0.07081473
111	0x3c0ec9e1	0.008715124
112	0x3db4fd87	0.08837419
113	0x3d982865	0.0742958
114	0x3db7bf7c	0.089720696
115	0x3dda9e9b	0.10674783
116	0x3dda577a	0.10661216
117	0x3d95a450	0.07306731
118	0x3d28d682	0.041220196
119	0x3d95974d	0.07304249
120	0x3cf3efcc	0.02977743
121	0x3d1e9bd9	0.038722847
122	0x3d828a94	0.06374088
123	0x3d2a9361	0.041644458
124	0x3d24a335	0.04019471
125	0x3c851111	0.01624349
126	0x3dc1fb04	0.094717056
127	0x3d9de8f4	0.07710448
128	0x3da01729	0.078169174
129	0x3da60290	0.081059575
130	0x3ce49cca	0.027906794
131	0x3df173fd	0.11789701
132	0x3dbf8b83	0.093527816
133	0x3d491fbf	0.04910254
134	0xbbc5091a	-0.006013048
135	0x3d83d686	0.064374015
136	0x3d600159	0.054688785
137	0x3da6995f	0.08134722
138	0x3d894d04	0.06704143
139	0x3cf6a62b	0.030108532
140	0x3c48ef78	0.012264125
141	0x3d93b629	0.07212479
142	0x3dd13749	0.10215623
143	0x3d6ddae2	0.05807007
144	0x3d6e8e95	0.058241446
145	0x3d8a93af	0.0676645
146	0x3d4539c2	0.048150785
147	0x3c278ca1	0.0102264
148	0x3d44a896	0.04801234
149	0x3d7e3e93	0.062071394
150	0x3d926011	0.071472295
151	0x3cd8e031	0.02647409
152	0x3d909402	0.0705948
153	0x3c8395f8	0.016062722
154	0x3d3d3304	0.04619123
155	0x3ce0f2dd	0.027459556
156	0x3d94553d	0.072428204
157	0x3dbc5d3f	0.09197473
158	0x3db85681	0.09000874
159	0x3dac3c04	0.084098846
160	0x3d581d63	0.0527624
161	0x3c7dc8f8	0.015489809
162	0x3d2275b6	0.03966304
163	0x3de73677	0.11289685
164	0x3d8c13fd	0.0683975
165	0x3d8d8c23	0.069114946
166	0x3da7cbb1	0.08193148
167	0x3c9e5308	0.019326702
168	0x3da98e54	0.082791
169	0x3d5ce743	0.053931486
170	0x3c971d07	0.018446459
171	0x3da64003	0.08117678
172	0x3d10c848	0.035347253
173	0x3d7327f8	0.05936429
174	0x3cc8105a	0.02442186
175	0x3da7584e	0.0817114
176	0x3dc33515	0.09531609
177	0x3c900a1f	0.017582951
178	0x3dfd08f8	0.12355226
179	0x3d4a46cb	0.04938392
180	0x3d805fd6	0.06268279
181	0x3ce9264c	0.028460644
182	0x3ca11c59	0.019666838
183	0x3d5a9d3c	0.053372607
184	0x3dec9af0	0.115529895
185	0x3da096cd	0.07841263
186	0x3d9f7365	0.07785682
187	0x3dab1332	0.083532706
188	0x3da023a8	0.07819301
189	0x3dcd81df	0.100345366
190	0x3de84f24	0.1134322
191	0x3d8797d9	0.066207595
192	0x3d9b4344	0.07581189
193	0x3d06ee6b	0.032942217
194	0x3d762d5c	0.06010185
195	0x3d2f37dc	0.04277788
196	0x3d4d2f25	0.05009379
197	0x3dbddc9f	0.09270596
198	0x3d782ce7	0.060589697
199	0x3d9f8afc	0.07790181
200	0x3cb917e6	0.022594403
201	0x3dc61470	0.09671867
202	0x3dc73b64	0.09728125
203	0x3dc17c2a	0.094475105
204	0x3cd5d919	0.026104497
205	0x3dac7cea	0.08422263
206	0x3d06c57e	0.032903187
207	0x3d81fbde	0.06346868
208	0x3d79abdd	0.060954917
209	0x3d94e70e	0.07270633
210	0x3cfd20b9	0.030899392
211	0x3db269a6	0.08711557
212	0x3d224b5f	0.03962266
213	0x3d6b61f5	0.057466466
214	0x3d7b30e9	0.06132594
215	0x3de8f560	0.113749266
216	0x3d7dd8fa	0.061974503
217	0x3dd5b35c	0.10434601
218	0x3ca39de5	0.01997275
219	0x3d08f083	0.033432495
220	0x3da6f286	0.081517264
221	0x3da3dedf	0.08001494
222	0x3d9eb118	0.07748622
223	0x3cae8b67	0.021306707
224	0x3d6c894f	0.057748135
225	0x3d9c9fa0	0.076476336
226	0x3d95553e	0.07291649
227	0x3da60e27	0.08108168
228	0x3dc42767	0.09577828
229	0x3d763b78	0.060115308
230	0x3d93ad7f	0.07210826
231	0x3d46e8ba	0.04856179
232	0x3d40eb85	0.04709961
233	0x3db8a550	0.09015906
234	0x3daf4a2b	0.08559068
235	0x3d31ba94	0.043390825
236	0x3d7c7c1e	0.061641805
237	0x3d9c0fd7	0.07620209
238	0x3d85ba6a	0.06529696
239	0x3c03551b	0.008015896
240	0x3d9b3faa	0.07580502
241	0x3cb91cc7	0.02259673
242	0x3d090072	0.03344769
243	0x3dfc4dcf	0.12319528
244	0x3ddab92b	0.10679849
245	0x3cbe70b9	0.02324711
246	0x3d48bb89	0.049006972
247	0x3dec0109	0.11523635
248	0x3d9e8c11	0.07741559
249	0x3cdcec72	0.026968215
250	0x3d53a426	0.051670216
251	0x3d674c29	0.056469116
252	0x3d0186fe	0.03162288
253	0xbcd42d20	-0.025900424
254	0x3ddcca5b	0.10780784
255	0x3db7d971	0.089770205

lstm.bias_hh_l0 f4 [512]
0	0x3dcf7513	0.10129752
1	0x3de1301f	0.109955065
2	0x3c170c83	0.009219292
3	0x3deacde7	0.11465054
4	0x3dda3bf9	0.1065597
5	0x3d7784bd	0.060429323
6	0x3db1fa4d	0.08690319
7	0x3dab2ad1	0.08357776
8	0x3dab0a2e	0.08351551
9	0x3dcdf3b3	0.100562476
10	0x3dacbd82	0.08434583
11	0x3dd6f034	0.10495034
12	0x3d07e311	0.03317553
13	0x3dd7690e	0.105180845
14	0x3d0442e7	0.032290366
15	0x3d756a67	0.059915926
16	0x3cc0c85a	0.023533035
17	0x3d2c4ff8	0.04206845
18	0x3d9b1337	0.07572024
19	0x3d4691e6	0.048478983
20	0x3c8ba091	0.017044337
21	0x3dd49f55	0.10381953
22	0x3dc490df	0.095979445
23	0x3c5a4792	0.013322728
24	0x3db7631f	0.08954453
25	0x3d880b3d	0.066427685
26	0x3d5ebfa4	0.05438198
27	0x3d925e6c	0.07146916
28	0x3dab7931	0.08372725
29	0x3dca0726	0.09864645
30	0x3d89eae5	0.06734256
31	0x3d7e0b99	0.06202278
32	0x3deff38c	0.11716375
33	0x3cad8796	0.021182816
34	0x3d428958	0.047494262
35	0x3d897334	0.067114264
36	0x3d872602	0.06599046
37	0x3ddbb509	0.10727889
38	0x3d955cbb	0.072930776
39	0x3dd41311	0.10355199
40	0x3d4e6506	0.050389312
41	0x3d9b3d29	0.07580025
42	0x3d6c4b0b	0.057688754
43	0x3d9bdad9	0.07610101
44	0x3d8a4550	0.067515016
45	0x3d30ab3b	0.043132048
46	0x3dc53fbd	0.09631298
47	0x3dd4e7b5	0.10395757
48	0x3db67dcd	0.08910713
49	0x3d32b579	0.043630097
50	0x3d9a946a	0.07547839
51	0x3d75b5fd	0.05998801
52	0x3dbbd09d	0.09170649
53	0x3dec3247	0.11533027
54	0x3d6e7a8d	0.058222342
55	0x3d50271f	0.05081856
56	0x3d5b39e6	0.053522013
57	0x3d260f43	0.0405419
58	0x3dab4b49	0.08363969
59	0x3d98d4cb	0.07462462
60	0x3d62df10	0.05538851
61	0x3da48f1e	0.0803511
62	0x3de72cb8	0.11287826
63	0x3dc5b679	0.096539445
64	0x3d9a046a	0.07520373
65	0x3d209cf3	0.03921218
66	0x3da1f53d	0.079081036
67	0x3c6b67f2	0.014368044
68	0x3dba1eab	0.09087881
69	0x3dc0f9c6	0.094226405
70	0x3d2c7e82	0.042112835
71	0x3d7c0c13	0.061534952
72	0x3d0adaf1	0.033900205
73	0x3d8f08f5	0.0698413
74	0x3dc0978e	0.09403907
75	0x3d256dd8	0.04038796
76	0x3d567daa	0.052365936
77	0x3daa6bac	0.08321318
78	0x3d108c58	0.035290092
79	0x3d7d81cd	0.061891366
80	0x3d827b4c	0.06371173
81	0x3d90b592	0.07065882
82	0x3d95039e	0.072760805
83	0x3d9a7775	0.07542316
84	0x3dc74bb0	0.09731233
85	0x3d99e8c4	0.075151
86	0x3d1c0d0c	0.03809838
87	0x3d8ed0d1	0.06973422
88	0x3d042605	0.03226282
89	0x3db0f0c2	0.08639671
90	0x3d4fcad3	0.050730538
91	0x3d820bb8	0.063498914
92	0x3da91fc2	0.082580104
93	0x3d9e337d	0.07724664
94	0x3ddcebf0	0.10787189
95	0x3db0f42a	0.086403206
96	0x3d386a54	0.045023277
97	0x3d8ea74c	0.06965503
98	0x3d687095	0.05674799
99	0x3da12efa	0.07870288
100	0x3dffa966	0.12483482
101	0x3d80609b	0.06268426
102	0x3d937bb9	0.072013326
103	0x3d9e8b73	0.077414416
104	0x3d34bc8c	0.044125125
105	0x3d51c9bb	0.051217776
106	0x3da66f21	0.08126665
107	0x3d813fee	0.06311022
108	0x3d671a37	0.056421485
109	0x3d90e974	0.07075778
110	0x3d451c18	0.048122495
111	0x3d3d17d0	0.046165287
112	0x3dbd7698	0.092511356
113	0x3c613b1c	0.013747003
114	0x3dca32b0	0.09872949
115	0x3d980bfe	0.07424162
116	0x3deff794	0.11717144
117	0x3d0d482e	0.034492664
118	0x3ca70d75	0.020392159
119	0x3dbec397	0.093146496
120	0x3d476027	0.048675682
121	0x3d6f63a2	0.058444627
122	0x3d360d63	0.04444636
123	0x3da870a5	0.0822461
124	0x3d85af1f	0.06527542
125	0x3d6ffa30	0.058588207
126	0x3db7e2a8	0.08978778
127	0x3d88f94f	0.06688177
128	0x3d885cb4	0.06658307
129	0x3dbbc38e	0.091681585
130	0x3d92fdb7	0.071772985
131	0x3e0dd286	0.1384984
132	0x3d860b11	0.065450795
133	0x3da4825d	0.08032677
134	0x3d9529c0	0.07283354
135	0x3d8376bb	0.064191304
136	0x3da70ee8	0.0815714
137	0x3dc38ac7	0.09547954
138	0x3d24927d	0.040178765
139	0x3db6af0e	0.08920108
140	0x3db23ede	0.08703397
141	0x3dcfa542	0.10138942
142	0x3dc22910	0.09480488
143	0x3d0cb453	0.034351658
144	0x3d31a24b	0.043367665
145	0x3d7c5f86	0.061614536
146	0x3dd9e8bf	0.10640096
147	0x3d2cf8de	0.042229526
148	0x3d55d049	0.05220059
149	0x3d0315d3	0.032003235
150	0x3db57cea	0.08861716
151	0x3d96874c	0.073500246
152	0x3dcae8ae	0.099076614
153	0x3d255453	0.04036362
154	0x3d0b0178	0.033936948
155	0x3d309bf9	0.043117497
156	0x3db14c6f	0.08657157
157	0x3d5c1730	0.05373305
158	0x3d70a932	0.058755107
159	0x3db95f70	0.090514064
160	0x3d7c2461	0.06155813
161	0x3db1a864	0.08674696
162	0x3da48a11	0.080341466
163	0x3dd4af65	0.10385016
164	0x3d6469c3	0.055764925
165	0x3d5906b4	0.05298491
166	0x3d78bdc6	0.060727857
167	0x3d1af966	0.0378355
168	0x3c9a3122	0.018822256
169	0x3c8e537c	0.017373793
170	0x3d4e5d7e	0.05038213
171	0x3d988fd5	0.07449309
172	0x3d575f59	0.052581165
173	0x3d1963e7	0.03744879
174	0x3d70861c	0.058721647
175	0x3d82948b	0.063759886
176	0x3d9ccf38	0.07656711
177	0x3d42713b	0.047471266
178	0x3dd7d1ce	0.10538064
179	0x3d6b2138	0.057404727
180	0x3d9e4651	0.077282555
181	0x3d8e944c	0.06961879
182	0x3d35f3d8	0.044422
183	0x3db6dc83	0.08928778
184	0x3dd98f7b	0.1062307
185	0x3d6dceb3	0.05805845
186	0x3d8c3aaa	0.06847127
187	0x3dc08410	0.09400189
188	0x3d837e1d	0.064205386
189	0x3decde0f	0.11565792
190	0x3df8b3f5	0.12143699
191	0x3d7ab072	0.061203428
192	0x3d2a7215	0.041612703
193	0x3d0a69d1	0.03379232
194	0x3d8840ae	0.06652962
195	0x3d92be9f	0.07165264
196	0x3d3cc26f	0.046083864
197	0x3d1acd09	0.037793193
198	0x3da0fce6	0.078607365
199	0x3d5a1fdd	0.053253043
200	0x3d58f193	0.052964758
201	0x3cfc2784	0.030780561
202	0x3de81bba	0.113334134
203	0x3dcb6407	0.09931188
204	0x3d856996	0.065142795
205	0x3dd93b91	0.106070645
206	0x3d86ed71	0.06588257
207	0x3da1b4f6	0.07895844
208	0x3cdf7923	0.027279442
209	0x3d81cf27	0.06338339
210	0x3d3f51db	0.046708923
211	0x3d6c97bf	0.057761904
212	0x3d988e5b	0.07449027
213	0x3cec8f53	0.028876936
214	0x3d0eac67	0.034832384
215	0x3dadc679	0.08485121
216	0x3c8f1488	0.017465845
217	0x3da305fd	0.079601265
218	0x3dc97068	0.09835893
219	0x3d47b362	0.048755057
220	0x3d415da9	0.047208462
221	0x3d4baaa0	0.049723268
222	0x3dafb193	0.085787915
223	0x3d71bb81	0.05901671
224	0x3d88c43e	0.06678055
225	0x3dcabe5b	0.09899589
226	0x3db5a038	0.0886845
227	0x3d272e73	0.04081578
228	0x3d8b530f	0.068029515
229	0x3dd19898	0.10234183
230	0x3dbe6fef	0.092986934
231	0x3d794efd	0.060866345
232	0x3d4d01ec	0.05005066
233	0x3d20bb95	0.039241392
234	0x3d652922	0.05594743
235	0x3da0dad8	0.07854241
236	0x3da3d1fe	0.07999037
237	0x3d50c7ed	0.050971914
238	0x3d93d09f	0.07217526
239	0x3dba07b6	0.09083502
240	0x3db12e56	0.08651416
241	0x3ca948c3	0.020664578
242	0x3d970a50	0.07375014
243	0x3dbbbb92	0.091666356
244	0x3d6a2aa0	0.057169557
245	0x3d408215	0.046999056
246	0x3d870fd1	0.065948136
247	0x3d7e2e82	0.062056072
248	0x3d4bafa6	0.04972806
249	0x3d96729a	0.07346077
250	0x3d1a0017	0.037597742
251	0x3dc905eb	0.09815582
252	0x3d8a509e	0.06753658
253	0x3bfab9e3	0.007651554
254	0x3d7331e8	0.059373766
255	0x3d7040b9	0.058655474

lstm.weight_ih_l1 f4 [512, 128]
0	0x3c61f3c1	0.013791026
1	0xbca992a1	-0.0206998
2	0xbb03d74d	-0.0020117343
3	0xbc11c1c9	-0.0088963
4	0xbb679667	-0.003533745
5	0x3d031b09	0.032008205
6	0x3afe65f7	0.001940905
7	0xbb927baa	-0.0044703083
8	0x3baa76a9	0.0052021337
9	0xbca7a637	-0.020465
10	0xbc9e75c2	-0.01934326
11	0xbc1331fb	-0.008984084
12	0x3c2cf6f9	0.01055693
13	0x3b0d0efd	0.0021523826
14	0x3c484647	0.012223787
15	0xbaaf8fb1	-0.0013394264
16	0x3bff659c	0.007794095
17	0xb9efd8f9	-0.0004574729
18	0x3c0dc151	0.008652047
19	0xbc1c4d2d	-0.0095398845
20	0x38fb9b2a	0.00011997514
21	0xbbdb1394	-0.0066856835
22	0xbba91efc	-0.0051611643
23	0x3bdfc0b9	0.0068283943
24	0xbb2b0b1d	-0.0026099153
25	0xbb434892	-0.0029797894
26	0xbbb09c4b	-0.0053897253
27	0x3bc590e4	0.006029235
28	0x3ba8d265	0.005152034
29	0x3b5384f8	0.00322753
30	0xbc641d15	-0.013922949
31	0xbcc9ea48	-0.024647847
32	0xbca5d1a1	-0.02024156
33	0xbcac8b7a	-0.021062601
34	0x3c2319a6	0.0099548455
35	0xbcf4908a	-0.029854078
36	0x3b3176bf	0.0027078835
37	0x3bf480b0	0.00746163
38	0x3c48ecfb	0.012263532
39	0xbc83dff5	-0.016098002
40	0xbbba2ff8	-0.005681988
41	0x3b87cf0d	0.0041445554
42	0x3b8256ec	0.003977647
43	0x3c086649	0.008325168
44	0x3b0e0e2a	0.0021675923
45	0xbc9dbe64	-0.019255824
46	0xbca3e90a	-0.020008583
47	0xbc127732	-0.008939551
48	0xbbaf5f2e	-0.0053519225
49	0x3ca46bee	0.020070996
50	0x3d02ceaa	0.03193537
51	0xbbd179ba	-0.0063926848
52	0xbc931e07	-0.017958654
53	0xbc602a4e	-0.013681961
54	0x38fcfe85	0.00012063704
55	0xbbde0468	-0.0067754276
56	0x3c3a8460	0.0113841
57	0xbc262bc1	-0.010142268
58	0x3c4b9ee0	0.0124280155
59	0x3c640a47	0.013918466
60	0x3ce4f5b9	0.027949201
61	0x3c184330	0.0092933625
62	0xbc9034c8	-0.017603293
63	0x3c29401a	0.010330224
64	0x3986a5be	0.0002568196
65	0xbaf1c993	-0.0018446915
66	0xbca8b111	-0.020592244
67	0xbbcce5b7	-0.00625297
68	0x3b8dc324	0.004326241
69	0x3c60526a	0.013691524
70	0x3c8aaa21	0.016926827
71	0x3c877888	0.016536966
72	0x3cc0fb8f	0.023557452
73	0xbc9fcc8a	-0.019506712
74	0x3c0f2395	0.008736511
75	0xbbc1b09a	-0.005910945
76	0xbab0d31a	-0.0013490648
77	0xbc0525e7	-0.008126712
78	0x3beec956	0.0072871847
79	0xbc234cfc	-0.009967085
80	0x3b15f21d	0.0022879906
81	0xbc460439	-0.012085968
82	0x3cdb7e8b	0.026793739
83	0x3c87fcbb	0.016600003
84	0x3c12519c	0.00893059
85	0xbc2a40ef	-0.010391458
86	0xbc8499b9	-0.016186582
87	0xbbeac9bc	-0.007165162
88	0x3c84b30c	0.016198657
89	0xbbd3f3f9	-0.006468293
90	0xbbb2e047	-0.005458865
91	0xb7d8815a	-2.580944e-05
92	0xbc90be56	-0.017668884
93	0x3b17f9d3	0.0023189678
94	0xb933ef92	-0.00017160017
95	0x3bbf9bbe	0.0058474233
96	0x3c494f97	0.012287042
97	0xbbd4a333	-0.0064891814
98	0x3c16565b	0.009175862
99	0x3c565062	0.013080688
100	0xba54e7e4	-0.00081217126
101	0xbcfba74e	-0.030719426
102	0x3b84ecb2	0.0040565366
103	0x3c42d42d	0.011891407
104	0x3ca3cd30	0.019995302
105	0x3cbef7c4	0.023311503
106	0xb9cfc2c0	-0.00039627217
107	0xbbafcacc	-0.0053647514
108	0xbc3d3182	-0.011547448
109	0xbba34e1a	-0.0049836757
110	0xbb1fbe9f	-0.0024375094
111	0x3bf9b898	0.0076208822
112	0xbcaf4d47	-0.021399153
113	0x3c4d2bac	0.012522619
114	0x3c23da99	0.010000848
115	0xbce1c06a	-0.02755757
116	0x385ea0f8	5.307884e-05
117	0xbbe1626f	-0.0068781893
118	0x3b68ea87	0.003554018
119	0xba10eb8d	-0.0005528264
120	0xb99ea95b	-0.00030262288
121	0xbc927454	-0.017877735
122	0xbbda0758	-0.0066537075
123	0x3cfc8eb1	0.03082976
124	0x3b71d615	0.0036901284
125	0x3bdaed6d	0.0066811354
126	0xbb144bdc	-0.0022628224
127	0x3bdb0331	0.00668373
128	0x3a706796	0.0009170709
129	0xbc673cae	-0.014113588
130	0x3c06aa86	0.008219367
131	0xbbeb7caa	-0.007186492
132	0xbcbd4f51	-0.02310911
133	0x3c8ef0df	0.01744884
134	0x3c688bd3	0.014193493
135	0xbc82d336	-0.015969854
136	0x3bea0e45	0.0071428143
137	0xbb74e5f4	-0.0037368508
138	0xbc5fe9dd	-0.013666597
139	0x3ad958bb	0.001658223
140	0x3bd92c8f	0.0066276263
141	0x3ca30fa8	0.019904926
142	0xbaf1627d	-0.0018416193
143	0xbc2f0ac0	-0.010683715
144	0x3bd6807a	0.0065460773
145	0xbb87368e	-0.0041263765
146	0x3c3271e9	0.010891416
147	0x3a60a2f3	0.0008569203
148	0xba51cfdf	-0.00080036925
149	0xbc7264e4	-0.014794562
150	0xbb1ae60b	-0.0023635651
151	0x3bc2cdae	0.005944929
152	0xbbb30453	-0.005463162
153	0x3c1e76db	0.009671892
154	0xbbb3207c	-0.005466519
155	0xbbc55756	-0.006022374
156	0xbc0ec3ec	-0.008713704
157	0xbc5481d0	-0.012970403
158	0x3ba7da98	0.005122494
159	0xbbdbe50d	-0.0067106546
160	0xbc0d00e6	-0.008606171
161	0xbba8fd6e	-0.0051571643
162	0x3b4884db	0.0030596766
163	0xbca46ba1	-0.020070853
164	0x3aa6d576	0.0012728411
165	0x3bee0b94	0.007264564
166	0xbbaca7d3	-0.0052690296
167	0xbbe35b12	-0.0069383467
168	0xbb800620	-0.00390698
169	0x3c8e5122	0.017372672
170	0xbb5ff2c3	-0.0034171797
171	0x3b6487cb	0.0034870978
172	0xbaebf742	-0.0018002766
173	0xbc2c25f0	-0.010507092
174	0x3b9d0ea7	0.0047930065
175	0x3b26f651	0.0025476406
176	0xbbcea908	-0.006306771
177	0x3b6448ab	0.0034833353
178	0x3c476c24	0.012171779
179	0xbc1e4c51	-0.00966175
180	0xbc297b6b	-0.010344367
181	0x3b688e16	0.003548508
182	0x3c2a0b0b	0.010378609
183	0x3baffac7	0.005370471
184	0x3c54002f	0.012939497
185	0xba545f86	-0.00081013923
186	0x39f563a9	0.00046804294
187	0x3c01c688	0.007920869
188	0x3c9c34d2	0.019068155
189	0xbc387b38	-0.011259846
190	0xbc649f2a	-0.013953963
191	0x3c1c8be6	0.009554839
192	0x3a91abc3	0.0011113811
193	0xbbcc5ede	-0.006236895
194	0xbc86290d	-0.016376996
195	0xb93978a7	-0.00017687921
196	0xbba57d5c	-0.0050503444
197	0x3b480323	0.0030519448
198	0x3ca31034	0.019905187
199	0x3c28f2f9	0.010311835
200	0x3c1559d2	0.009115653
201	0xbc01b5ff	-0.007916926
202	0x3c5b33ee	0.01337908
203	0xbaa2f05a	-0.001243125
204	0x3c531cce	0.012885286
205	0x3b0accbd	0.0021179162
206	0x3c63c48b	0.01390184
207	0x3c372a86	0.011179572
208	0x3c4fe051	0.012687759
209	0xbc081605	-0.008306031
210	0x3c8a10d4	0.016853727
211	0x3b8cb914	0.004294524
212	0xbba3b03f	-0.0049953754
213	0x3b859330	0.004076384
214	0xbbbb8c99	-0.0057235477
215	0x3ab09f12	0.0013475141
216	0x3b28400a	0.0025672936
217	0xbacffd42	-0.0015868323
218	0xbc13c5a6	-0.009019291
219	0x3c93dde2	0.018050138
220	0xbc899121	-0.016792836
221	0x3caa2d6d	0.020773614
222	0xbc8013f7	-0.01563452
223	0x3ba07ade	0.0048974594
224	0x3b70686c	0.0036683334
225	0xbbe1fae6	-0.0068963645
226	0x3c114822	0.008867295
227	0x3a930058	0.0011215312
228	0xbbb5b263	-0.005544947
229	0xbc83c85b	-0.016086748
230	0x3c29f0fb	0.010372396
231	0xba45c84e	-0.00075448013
232	0x3bc94e0d	0.0061433376
233	0x3c9036e1	0.017604293
234	0x3c25fe1b	0.010131384
235	0x3b844f1f	0.0040377523
236	0xbc40a18c	-0.011757266
237	0x3c788bc4	0.0151700415
238	0xbba1b373	-0.004934722
239	0x3b59e1bd	0.0033246123
240	0xbad01fa0	-0.0015878566
241	0x3c9151d7	0.01773922
242	0x3c37727c	0.011196729
243	0xbccb32a1	-0.024804415
244	0x3b5ca58b	0.0033668007
245	0xbc04f27a	-0.008114452
246	0xbbd85758	-0.006602209
247	0x3be844d0	0.007088281
248	0x3bb8eada	0.005643231
249	0xbc27cfd2	-0.010242419
250	0x3bd7009b	0.0065613515
251	0x3c92db8c	0.017926954
252	0x3b35686c	0.0027680648
253	0xbc426705	-0.011865382
254	0xbb85e1d6	-0.0040857596
255	0x3ba53466	0.005041647

lstm.weight_hh_l1 f4 [512, 128]
0	0xbc7ca5b1	-0.015420363
1	0xbd0b4332	-0.03399963
2	0x3cfc93df	0.03083223
3	0x3c582725	0.0131929265
4	0x3cb50d5f	0.022101102
5	0x3cd76b8c	0.0262964
6	0xbc99f806	-0.018795025
7	0xbc5ba14e	-0.013405157
8	0xbc1fe0a5	-0.009758149
9	0x3b40e4a2	0.002943315
10	0x3ccd7385	0.025079498
11	0x3cad88ad	0.021183336
12	0xbcafb0c9	-0.021446602
13	0xbcce74f0	-0.025202245
14	0xbc077f10	-0.00827004
15	0x3ba14f46	0.00492278
16	0xbcb0a5fc	-0.021563523
17	0xbc1ef7c2	-0.009702625
18	0xbc19dcc8	-0.009391017
19	0xbc4676cd	-0.012113285
20	0x3b677e71	0.0035323168
21	0xbab5989a	-0.0013854683
22	0x3bbc6fab	0.0057506165
23	0x3b7df7a0	0.0038752332
24	0x3cb3aa0a	0.021931667
25	0x3c193b54	0.009352524
26	0xbc45b0fa	-0.01206612
27	0xbd01e76f	-0.031714853
28	0x3c5d9ebb	0.013526614
29	0xbcb85288	-0.022500291
30	0x3a98e5f6	0.0011665213
31	0x3c401ad7	0.011725149
32	0xbd39a8e6	-0.04532709
33	0x3bdf121b	0.0068075783
34	0xbae95562	-0.0017801935
35	0xbc8d21b5	-0.017227987
36	0xbd1f1cda	-0.038845874
37	0xbc8102db	-0.015748432
38	0xbbeb617c	-0.007183252
39	0x3cf0f118	0.029411837
40	0xbcb647d9	-0.022251057
41	0x3c2bbc6f	0.010481938
42	0x3c3fb466	0.011700725
43	0xbb70ed30	-0.0036762469
44	0x3d2601be	0.040529005
45	0x3ccf6ff9	0.025321947
46	0xbcc8e3aa	-0.024522621
47	0x3d339bfe	0.043849938
48	0xbcacd8b2	-0.021099422
49	0xbc4aea84	-0.012385014
50	0xbc3104a9	-0.010804334
51	0xbace9835	-0.0015761914
52	0xbd13e4e4	-0.03610696
53	0x3c036ff5	0.008022298
54	0xbd3d9697	-0.04628619
55	0x3c9735ea	0.018458325
56	0x3cd75355	0.026284853
57	0xbcad7941	-0.021175982
58	0x3c958a68	0.018254474
59	0xbcae142d	-0.021249855
60	0xbadc7fd9	-0.001682277
61	0x3ce24ab6	0.027623516
62	0x3d06066e	0.032720976
63	0x3bccc6dd	0.0062492923
64	0xbbc30d87	-0.0059525403
65	0xbcc9fd79	-0.024656998
66	0x3cb8da69	0.022565084
67	0x3c81dd1d	0.015852505
68	0x3c985e5d	0.018599683
69	0x3c265e63	0.0101543395
70	0x3cf525e8	0.029925302
71	0x3bb99920	0.005664006
72	0x3c6b4e0d	0.0143618705
73	0x3cb02c33	0.02150545
74	0x3cd2c962	0.025730792
75	0x3cac0a99	0.021001147
76	0xbc8ee70b	-0.017444154
77	0xbc57f680	-0.013181329
78	0xbd1d210f	-0.038361605
79	0x3d21c808	0.039497405
80	0xba04d2d9	-0.0005066819
81	0xbc4fda76	-0.0126863625
82	0x3c0c3755	0.008558114
83	0xbce118e0	-0.027477682
84	0xbd2adafa	-0.04171274
85	0x3d0c88b6	0.034310065
86	0x3c8fe47f	0.01756501
87	0x39f68c14	0.00047025143
88	0x3c676976	0.014124265
89	0x3b9256d6	0.004465918
90	0xbc8ceae6	-0.017201852
91	0x39d58c9c	0.00040731288
92	0xbc034b93	-0.008013624
93	0x3c29db16	0.010367176
94	0x3bd102e3	0.006378518
95	0xbc6d3ad5	-0.014479359
96	0xbccce454	-0.02501122
97	0x3cd26884	0.025684603
98	0x3b560cbb	0.0032661397
99	0xbc219628	-0.00986246
100	0x3bb62eea	0.005559792
101	0xbd2186ae	-0.03943508
102	0xbccdd521	-0.025126042
103	0xbcc0a7e5	-0.023517558
104	0x3c84e29b	0.016221335
105	0xbcc97561	-0.024592103
106	0xbc39cfae	-0.011341019
107	0xbd01bff9	-0.03167722
108	0x3b072186	0.0020619347
109	0x3cc96857	0.024585886
110	0xbcf03787	-0.029323353
111	0xb9963473	-0.00028649307
112	0x3c9508f7	0.018192751
113	0xbca2e648	-0.019885197
114	0xbc0eb3a1	-0.008709819
115	0xbc002e7c	-0.007823583
116	0x3c0edfe6	0.008720374
117	0x3bdf9d14	0.006824145
118	0xbb60ff00	-0.003433168
119	0xbd0f0f63	-0.034926783
120	0x3c97dc13	0.018537557
121	0x3ae1c82c	0.0017225794
122	0xb9f2f72b	-0.0004634199
123	0x3cbe9393	0.023263728
124	0xbbbdca13	-0.0057919114
125	0x3c587da5	0.01321355
126	0xbd04107a	-0.032242276
127	0x3c56e295	0.013115545
128	0xbd21eab2	-0.039530464
129	0xbc9f874a	-0.01947369
130	0xb989a19b	-0.00026251082
131	0xbad23509	-0.0016037534
132	0xbc1b8e6f	-0.009494408
133	0xbba07f6e	-0.0048980033
134	0xbccc3358	-0.024926826
135	0x3d0675c9	0.032827172
136	0x3c07b0ec	0.008281928
137	0x3bea7f16	0.007156263
138	0x3c657b21	0.014006407
139	0x3c2eaa46	0.010660714
140	0x3c3f7751	0.011686162
141	0xbc4ec731	-0.012620733
142	0x3cc49481	0.023996593
143	0x3c11a24f	0.008888795
144	0x3bb4b41d	0.0055146352
145	0x3b95cb05	0.004571321
146	0xbc8699d2	-0.01643077
147	0xbb76658d	-0.003759715
148	0xbd0ac026	-0.033874653
149	0x3b94adce	0.0045373207
150	0xbd01c185	-0.031678695
151	0xbcb915f0	-0.022593468
152	0x3ce594f9	0.028025137
153	0x3bd83c68	0.006598998
154	0x3d0164d9	0.031590316
155	0xbc4e33d1	-0.012585596
156	0x3b0388c5	0.0020070535
157	0xbb6bc6d6	-0.003597667
158	0xbd1732f3	-0.036913823
159	0x3cae3931	0.021267505
160	0xbd3d4cc9	-0.046215806
161	0x3c55621f	0.013023882
162	0x3c851ddf	0.016249595
163	0x3963173e	0.00021657065
164	0xbd07c239	-0.03314421
165	0x3c760a9d	0.015017179
166	0x3cf06eb6	0.029349666
167	0x3c9811c6	0.018563163
168	0xbd012378	-0.031527966
169	0x3bbe5ba9	0.0058092666
170	0x3a47c436	0.0007620485
171	0x3cb47bb7	0.022031648
172	0x3d2d40c4	0.042298093
173	0xb744c1e4	-1.1727654e-05
174	0xbc49a253	-0.0123067675
175	0x3d34b6a3	0.04411949
176	0x3c12e262	0.008965107
177	0xbc9a842e	-0.018861856
178	0xbd0a5980	-0.03377676
179	0x3c43aa91	0.011942522
180	0xbc8ea65f	-0.017413316
181	0x3d006e24	0.03135504
182	0xbd354c7a	-0.044262387
183	0x3c6938c3	0.014234724
184	0x3b871e5a	0.0041234912
185	0xba9f9465	-0.0012174962
186	0xbcc5539c	-0.02408772
187	0xbc9c7492	-0.019098554
188	0x3beee93a	0.0072909864
189	0xbc3aecaf	-0.011408969
190	0x3c958ba7	0.018255068
191	0x3c954a4d	0.018223906
192	0x3c8d237c	0.017228834
193	0xbc937902	-0.018002037
194	0x3c53e0f1	0.012932048
195	0xbad864a9	-0.0016509491
196	0x3c8224ce	0.01588669
197	0x3d090cc5	0.033459444
198	0x3cd6e499	0.02623205
199	0x3c39d39f	0.011341958
200	0xbbe0c6e9	-0.0068596494
201	0x39e26536	0.00043181487
202	0x3cd71e06	0.026259433
203	0xbc4617c4	-0.012090627
204	0xbbf46272	-0.0074580247
205	0xbbac0b6c	-0.005250385
206	0xbcdc4738	-0.026889428
207	0x3d28e6f8	0.041235894
208	0xbc9a2a2c	-0.018818937
209	0xbcdb20d3	-0.02674905
210	0x3cbd0c53	0.023077166
211	0x3beaee1c	0.007169498
212	0xbd4a55ae	-0.049398117
213	0x3c200c3f	0.009768545
214	0x3d0ec0a9	0.034851704
215	0xbcc640fc	-0.024200909
216	0x3c4be117	0.012443802
217	0x3c89827c	0.016785853
218	0xbbffa170	-0.0078012273
219	0x3d17e025	0.037078995
220	0x3b846ece	0.0040415293
221	0x3c257fac	0.01010124
222	0x38c22aa3	9.2585826e-05
223	0xb8b40f75	-8.585948e-05
224	0xbc095ef6	-0.008384457
225	0x3cd2629d	0.025681788
226	0xbccd69df	-0.025074897
227	0xbb2605fd	-0.002533316
228	0xbbda4c81	-0.006661952
229	0xbd1bb5a7	-0.038015034
230	0xbb3af948	-0.002852993
231	0xbc987a54	-0.018613018
232	0xbcbe8bed	-0.023260081
233	0xbc85aa4d	-0.016316557
234	0x3ccf1665	0.025279233
235	0xbcb8d113	-0.022560632
236	0xbc318eb1	-0.010837243
237	0x3d166b5a	0.036723472
238	0xbd084322	-0.033267148
239	0x3ca4cec7	0.02011813
240	0x3b7c7680	0.003852278
241	0xbcbf05b6	-0.023318153
242	0xbc9d7dbe	-0.019224998
243	0x3bf4d2b6	0.0074714078
244	0x3c7e03b8	0.015503816
245	0xba6162c6	-0.0008597787
246	0xb9a06cd6	-0.00030598667
247	0xbc132ce3	-0.00898287
248	0x3cb3dd67	0.021956159
249	0xbcbba399	-0.022905158
250	0x3cfd627c	0.03093075
251	0xbbd65862	-0.006541298
252	0x3c856748	0.0162846
253	0x3d02bb19	0.03191671
254	0xbd1f43a7	-0.038882878
255	0xbc488b68	-0.012240268

lstm.bias_ih_l1 f4 [512]
0	0x3d814a11	0.06312955
1	0x3dc57126	0.09640722
2	0x3d9cdb7f	0.07659053
3	0x3d81b6d0	0.06333697
4	0x3d658fea	0.05604545
5	0x3d0fe90b	0.035134356
6	0x3d830dcd	0.06399117
7	0x3d73db45	0.059535284
8	0x3d68149d	0.056660283
9	0x3c8109c2	0.015751723
10	0x3d54ef5a	0.051986076
11	0x3d58851d	0.05286132
12	0x3d5e0433	0.054203223
13	0x3d307ccd	0.04308777
14	0x3d356ee9	0.044295225
15	0x3d7357aa	0.059409775
16	0x3d275564	0.04085292
17	0x3d53e726	0.051734112
18	0x3daf4583	0.0855818
19	0x3dc41d2e	0.09575878
20	0x3d917cdc	0.07103893
21	0x3d779f53	0.060454678
22	0x3d84190f	0.06450092
23	0x3d5ef1f8	0.054429978
24	0x3d8e1383	0.06937315
25	0x3cdb4d47	0.026770247
26	0x3d562297	0.05227908
27	0x3d8bb0ac	0.06820807
28	0x3d827727	0.06370383
29	0x3d245ced	0.040127683
30	0x3d6314a7	0.055439617
31	0x3d6912ed	0.056902815
32	0x3d9e385e	0.07725595
33	0x3d70989e	0.058739297
34	0x3d800b8f	0.062522046
35	0x3d532de8	0.05155745
36	0x3d8faeed	0.07015786
37	0x3d193261	0.03740156
38	0x3d47a519	0.048741434
39	0x3d85527d	0.06509874
40	0x3d8e412e	0.06946026
41	0x3d005b3d	0.03133701
42	0x3dbc18ae	0.09184395
43	0x3daf6667	0.085644536
44	0x3d87f6fc	0.066389054
45	0x3cf18230	0.029481024
46	0x3d42a9a5	0.047525067
47	0x3d875368	0.06607705
48	0x3cf16e6d	0.0294716
49	0x3d59e9be	0.05320143
50	0x3d7a1418	0.06105432
51	0x3d5804d8	0.052738994
52	0x3d723dde	0.059141032
53	0x3d89910f	0.06717121
54	0x3d906a63	0.07051542
55	0x3d8fd875	0.07023708
56	0x3d507ce9	0.050900374
57	0x3d7ab749	0.06120995
58	0x3d046282	0.032320507
59	0x3da7b670	0.08189094
60	0x3d7229a1	0.05912173
61	0x3d38bc75	0.0451016
62	0x3d6b9505	0.057515163
63	0x3d408d61	0.04700983
64	0x3d897908	0.06712538
65	0x3d6c916e	0.05775588
66	0x3d9b1c8f	0.075738065
67	0x3ddd0727	0.1079238
68	0x3d782c45	0.060589094
69	0x3d6105a4	0.05493702
70	0x3d75cdf4	0.060010865
71	0x3d8f040f	0.06983196
72	0x3d2c58d3	0.042076897
73	0x3d9c2634	0.07624474
74	0x3d07e089	0.033173118
75	0x3d1f35c0	0.03886962
76	0x3db03986	0.08604722
77	0x3d447c96	0.047970377
78	0x3d4b738a	0.049670734
79	0x3d6694b6	0.056294166
80	0x3d59e398	0.053195566
81	0x3d46f8bb	0.04857705
82	0x3da79d43	0.08184292
83	0x3d7d9c25	0.06191649
84	0x3d956d27	0.0729621
85	0x3db57d6b	0.08861812
86	0x3d6f2b5e	0.058390968
87	0x3d4f0b50	0.050547898
88	0x3d8231b4	0.06357136
89	0x3d7fa57e	0.062413685
90	0x3db74ba0	0.08949971
91	0x3d77ddfc	0.060514435
92	0x3d504624	0.05084814
93	0x3d1fccc9	0.039013658
94	0x3d7ea99c	0.06217347
95	0x3d3651da	0.044511653
96	0x3dbb8ebb	0.09158083
97	0x3dc49adf	0.09599852
98	0x3d3ef627	0.046621468
99	0x3d6ca241	0.057771925
100	0x3d5e665f	0.054296847
101	0x3dae295d	0.08503983
102	0x3d286c71	0.041119043
103	0x3d893488	0.06699473
104	0x3d87bebe	0.06628178
105	0x3dc369b9	0.09541649
106	0x3d2b9719	0.041892145
107	0x3d931763	0.07182195
108	0x3d605246	0.054765962
109	0x3da0030b	0.078130804
110	0x3d953b91	0.07286752
111	0x3d8213e5	0.06351451
112	0x3d61c6d3	0.055121254
113	0x3d8bf0c0	0.06833029
114	0x3d74fdb3	0.05981226
115	0x3d33a3fa	0.043857552
116	0x3d95cd0c	0.073145
117	0x3d882e25	0.06649426
118	0x3d8180f6	0.063234255
119	0x3d5fcb53	0.054637264
120	0x3d820763	0.06349065
121	0x3da6c6cb	0.081433855
122	0x3d6cc985	0.05780937
123	0x3d930e58	0.0718047
124	0x3d726e8f	0.05918747
125	0x3d7cc36e	0.061709814
126	0x3d92d707	0.071699195
127	0x3d2f7508	0.04283622
128	0x3dad3bdd	0.08458684
129	0x3dd61870	0.1045388
130	0x3db8da4f	0.09026014
131	0x3d6949e6	0.05695524
132	0x3cd41db8	0.025893077
133	0x3d7aa6bf	0.061194178
134	0x3d6e6687	0.058203246
135	0x3d78dc90	0.06075722
136	0x3d09265c	0.033483848
137	0x3ce285ff	0.027651785
138	0x3d3a4c76	0.045483075
139	0x3d55062e	0.052007847
140	0x3d3aab16	0.045573317
141	0x3d50040b	0.050785106
142	0x3d4b2f2a	0.049605526
143	0x3d81a96c	0.06331143
144	0x3d4a2ff0	0.049362123
145	0x3d79850f	0.06091791
146	0x3d3e70d4	0.04649432
147	0x3da30a47	0.079609446
148	0x3db77c20	0.08959222
149	0x3da2a34f	0.07941305
150	0x3d827f65	0.06371955
151	0x3d5b9b21	0.05361474
152	0x3d32938c	0.043597743
153	0x3cd9e632	0.026599023
154	0x3d882455	0.06647555
155	0x3de4a54a	0.11164339
156	0x3d8d6fec	0.06906113
157	0x3d4957af	0.049155887
158	0x3d252bd2	0.040324993
159	0x3d853637	0.06504481
160	0x3dd2938d	0.10282049
161	0x3d5cd92e	0.053918056
162	0x3d732065	0.059357066
163	0x3d4226f0	0.047400415
164	0x3d89bce7	0.067254834
165	0x3cc640a9	0.024200754
166	0x3d1ccd1a	0.038281538
167	0x3d649cd1	0.055813614
168	0x3d81ebd6	0.0634381
169	0x3c8b9b89	0.017041938
170	0x3de985b0	0.11402452
171	0x3d66dae0	0.05636108
172	0x3d96ec90	0.073693395
173	0x3d306def	0.04307359
174	0x3d24d71f	0.040244218
175	0x3d8e98f9	0.06962771
176	0x3d29842a	0.041385807
177	0x3d720ea4	0.059095994
178	0x3d0bc892	0.034126826
179	0x3cdd7a10	0.027035743
180	0x3d0dce0d	0.034620333
181	0x3d3f0baa	0.046641983
182	0x3dab7e2c	0.08373675
183	0x3c63456b	0.013871531
184	0x3cd34b83	0.025792843
185	0x3d853b49	0.06505448
186	0x3d7da035	0.061920363
187	0x3daa145b	0.08304664
188	0x3cf72e64	0.030173488
189	0x3d2f56a8	0.04280725
190	0x3db004f3	0.08594694
191	0x3d6c2378	0.057651013
192	0x3d384beb	0.044994276
193	0x3d8897ff	0.06669616
194	0x3db62adf	0.08894896
195	0x3de6ed39	0.112757154
196	0x3d89f6fb	0.06736561
197	0x3d432c6b	0.047649782
198	0x3d6adc5b	0.057339054
199	0x3d58da6c	0.05294268
200	0x3d37b9b2	0.044854827
201	0x3d692737	0.056922164
202	0x3d7fd214	0.062456205
203	0x3ca161c5	0.01969994
204	0x3d72fbd8	0.05932221
205	0x3cf36e47	0.02971567
206	0x3db78a63	0.08961942
207	0x3db39202	0.08768083
208	0x3d548741	0.0518868
209	0x3d208c17	0.0391961
210	0x3d67e841	0.05661798
211	0x3d726778	0.059180707
212	0x3da5c90d	0.08094988
213	0x3d9c7da4	0.076411515
214	0x3d8a5163	0.067538045
215	0x3d26486b	0.040596407
216	0x3d6d9591	0.058003966
217	0x3d711929	0.058861885
218	0x3da9f113	0.082979344
219	0x3d1286bb	0.03577302
220	0x3d730906	0.059334777
221	0x3d8bbde7	0.068233304
222	0x3dcfa106	0.10138135
223	0x3d1c39f9	0.038141225
224	0x3dc1a3a3	0.09455039
225	0x3dc6f375	0.097144045
226	0x3cd46975	0.025929192
227	0x3d23b0e9	0.039963637
228	0x3d319e34	0.043363765
229	0x3db87217	0.09006136
230	0x3d2aeaf5	0.04172798
231	0x3d4b387d	0.04961442
232	0x3dad5ffb	0.084655724
233	0x3dc68603	0.096935295
234	0x3c97a393	0.018510615
235	0x3d7e7f4d	0.062133122
236	0x3d432f68	0.047652632
237	0x3d952f15	0.07284371
238	0x3d901f89	0.07037265
239	0x3d217eb2	0.039427467
240	0x3d6e4cfc	0.058178887
241	0x3d95d261	0.07315517
242	0x3d166ff8	0.036727875
243	0x3d074be3	0.033031356
244	0x3d79a029	0.060943756
245	0x3d2a9915	0.041649897
246	0x3d51c85a	0.05121646
247	0x3d5bfe03	0.05370904
248	0x3d3f5c3a	0.046718813
249	0x3daeca4c	0.08534679
250	0x3d881a6f	0.06645667
251	0x3db4140a	0.08792885
252	0x3d45c1a6	0.04828038
253	0x3d77c244	0.060488
254	0x3d36178b	0.044456046
255	0x3d60d34f	0.05488902
